src/best_models/cnn_98_54.pt (torch, 25735 bytes, 9 tensors)

conv_layers.0.weight f4 [4, 3, 3, 3]
0	0x3d2fafbf	0.042892214
1	0x3ec6a5e7	0.38798448
2	0x3eca6515	0.39530244
3	0x3f1ebc48	0.62006044
4	0x3dbd36da	0.09238978
5	0xbcc80017	-0.024414105
6	0x3d576f12	0.05259616
7	0xbf10d22a	-0.56570685
8	0xbebf8c2a	-0.37411624
9	0xbd9f3f01	-0.07775689
10	0xbd8d8cd9	-0.0691163
11	0x3e758c49	0.23979296
12	0x3d04723a	0.032335497
13	0x3e23bdb6	0.15990338
14	0xbd1bb43e	-0.03801369
15	0xbe9acc46	-0.30233973
16	0xbf3a3e8d	-0.72751695
17	0xbec92115	-0.39283052
18	0x3d8663fa	0.06562038
19	0x3dda51da	0.10660143
20	0x3e4470d1	0.19183661
21	0x3f143964	0.5790007
22	0xbd09e493	-0.03366525
23	0x3e04f511	0.1298411
24	0xbd3efb5a	-0.046626426
25	0xbeb3f355	-0.35146585
26	0xbe9cd83e	-0.3063373
27	0xbeaacd77	-0.33359882
28	0xbe17ca0e	-0.14823171
29	0x3dbee355	0.09320704
30	0x3c7e1de4	0.015510056
31	0xbdd39f97	-0.10333174
32	0xbe9fc846	-0.31207484
33	0xbe8de2a8	-0.27711987
34	0xbe68e2f6	-0.22742829
35	0xbdb95402	-0.09049226
36	0xbdaed038	-0.08535808
37	0x3dffb58a	0.12485798
38	0xbe3815c2	-0.1797705
39	0x3e13e80f	0.14443992
40	0x3f46c93c	0.7765081
41	0x3ea7b495	0.3275496
42	0x3e778e7b	0.24175446
43	0x3efcfcbf	0.4941158
44	0x3e42502f	0.189759
45	0xbddb216b	-0.10699733
46	0xbdbfca8d	-0.09364805
47	0x3dc3cfff	0.095611565
48	0xbe69f41b	-0.22847025
49	0x3e03006f	0.12793134
50	0xbe2fc6e7	-0.17165719
51	0xbe2f0726	-0.1709257
52	0x3d1f4dea	0.038892664
53	0xbe2d7f86	-0.16943178
54	0xbead13c9	-0.33804157
55	0x3e1c70a9	0.15277351
56	0xbecc4e7e	-0.39903635
57	0x3ca29a5b	0.019848993
58	0x3f2e6647	0.6812481
59	0x3dab9388	0.08377749
60	0x3d6fcca8	0.058544785
61	0x3e68e150	0.227422
62	0xbe1135b9	-0.1418065
63	0xbe8de0a4	-0.2771045
64	0xbeaa3a1e	-0.33247465
65	0xbea30ea8	-0.3184712
66	0x3d741bc0	0.059596777
67	0x3e0919be	0.13388726
68	0xbe91efda	-0.28503305
69	0xbe47ae29	-0.1950003
70	0x3dd0415d	0.10168717
71	0xbe8074d8	-0.25089145
72	0xbf208841	-0.62707907
73	0x3e01211a	0.12610283
74	0xbe218b86	-0.1577588
75	0x3ce26c46	0.02763952
76	0x3f1eeef0	0.6208334
77	0x3d0471ba	0.03233502
78	0xbcfbb064	-0.030723758
79	0x3ebf5bc3	0.37374696
80	0x3e9987a3	0.29986295
81	0xbe503c93	-0.20335607
82	0xbe95b759	-0.29241446
83	0xbdf56fd8	-0.11984223
84	0x3dd414a7	0.103555016
85	0x3cba0b14	0.02271036
86	0x3d4cb7df	0.04998004
87	0xbd672ac7	-0.05643728
88	0xbe09c27d	-0.13453098
89	0x3e7dd6dd	0.24788995
90	0x3f1d9690	0.61557865
91	0x3f255ccd	0.6459473
92	0x3e420940	0.18948841
93	0x3ee471ba	0.44618016
94	0x3f23219a	0.63723147
95	0xbdeebdc7	-0.11657291
96	0x3d5fe7ae	0.054664306
97	0xbeb01146	-0.3438818
98	0xbe8ac945	-0.2710668
99	0xbdfcdfac	-0.123473495
100	0xbd1e0ca9	-0.038586292
101	0xbe4e41ec	-0.20142335
102	0xbdf8bca5	-0.12145356
103	0xbcd53496	-0.026026051
104	0xbce7e78e	-0.028308656
105	0xbdd849d0	-0.105609536
106	0xbe975b31	-0.2956176
107	0xbd87a0e6	-0.06622486

conv_layers.0.bias f4 [4]
0	0xbd96025b	-0.07324668
1	0xbe116a66	-0.14200744
2	0x3d0ee606	0.034887336
3	0xbe595bbf	-0.21226405

conv_layers.2.weight f4 [8, 4, 3, 3]
0	0x3e3e9a84	0.1861363
1	0xbc9fa430	-0.01948747
2	0xbe851fc1	-0.2600079
3	0xbd7f61ec	-0.062349245
4	0xbec2633d	-0.37966338
5	0xbe808cc6	-0.25107402
6	0xbcd50f71	-0.02600834
7	0xbaf91058	-0.0019002063
8	0xbcfe2cd8	-0.031027243
9	0x3f0d6e86	0.5524677
10	0x3eabf1ec	0.3358301
11	0xbe0f48f4	-0.13992673
12	0x3d997f35	0.07494966
13	0x3e83dfa6	0.25756568
14	0xbeaf835d	-0.3427991
15	0xbd7f5be8	-0.062343508
16	0xbec466df	-0.38359734
17	0xbe97cd39	-0.2964876
18	0xbeade8c9	-0.33966663
19	0xbef40640	-0.47661018
20	0x3e3f85e1	0.18703414
21	0x3e369867	0.17831574
22	0xbe6e9148	-0.23297608
23	0xbdaeaf3b	-0.08529516
24	0x3e351409	0.17683424
25	0xbee9e976	-0.4568593
26	0x3cee11db	0.029061249
27	0xbe0807be	-0.13284203
28	0x3e1630ec	0.146671
29	0xbf1d1e84	-0.6137469
30	0x3f15ede1	0.585661
31	0x3f78ba24	0.9715903
32	0x3e38b9b6	0.18039593
33	0xbd33b658	-0.04387507
34	0x3e6b0cca	0.22954097
35	0xbe0d66e2	-0.13808778
36	0xbf62685e	-0.884405
37	0xbf38f5e2	-0.7225019
38	0xbf4455a3	-0.7669317
39	0x3e1e363e	0.15450379
40	0x3e9104a8	0.28323865
41	0xbf41e245	-0.75735885
42	0xbc54a321	-0.012978346
43	0x3e066d74	0.1312769
44	0x3e9dcbee	0.30819649
45	0xbdf346a6	-0.118787095
46	0xbd2a0ffe	-0.041519158
47	0xbdc2c220	-0.09509683
48	0x3e71b958	0.2360586
49	0x3e95f0bd	0.2928523
50	0xbe7fd97c	-0.24985307
51	0xbe07a013	-0.13244657
52	0xb8b32120	-8.541555e-05
53	0xbe8de11d	-0.2771081
54	0xbe44d83d	-0.19223113
55	0x3d073c41	0.033016447
56	0x3e3740e2	0.17895845
57	0xbe0d31a3	-0.13788466
58	0xbe2c2555	-0.16811116
59	0xbed387a8	-0.41314435
60	0xbe14d07a	-0.14532652
61	0xbe2a2e97	-0.16619335
62	0x3d7e09f9	0.06202123
63	0x3e88cb1d	0.26717463
64	0xbddfee88	-0.10934168
65	0xbecde656	-0.40214795
66	0x3db3c14c	0.08777103
67	0xbe59c4a7	-0.21266423
68	0xbe838dc1	-0.25694087
69	0x3e874f9c	0.26427925
70	0x3db76793	0.08955302
71	0xbd2c1726	-0.042014264
72	0x3ed2fff0	0.4121089
73	0xbe2f7f6d	-0.17138453
74	0xbea26dae	-0.31724304
75	0x3e05fc74	0.13084584
76	0xbfbfe2c0	-1.4991074
77	0xbebb5b86	-0.36593264
78	0xbef7e3fc	-0.48416126
79	0xbf6edb16	-0.9330305
80	0xbf749a72	-0.95548165
81	0xbef6b2b8	-0.48183227
82	0x3ea5d4af	0.32388827
83	0x3f1700d6	0.5898565
84	0xbf27dc7b	-0.655708
85	0x3e280db0	0.16411471
86	0x3f18309f	0.5944919
87	0xbf27a55b	-0.6548669
88	0xbd8617e0	-0.065475225
89	0x3d8e3b5f	0.06944918
90	0x3e864f56	0.26232404
91	0xbd33f2c8	-0.043932706
92	0xbefd55b7	-0.49479458
93	0xbe9205fb	-0.28520188
94	0xbec828c6	-0.39093608
95	0xbf0d682e	-0.5523709
96	0xbeb7bffd	-0.35888663
97	0xbe546c45	-0.20744427
98	0xbe19dacf	-0.15024875
99	0xbf0474ef	-0.51740927
100	0xbe57120c	-0.21002978
101	0x3efe5aa5	0.4967853
102	0xbf3ce733	-0.7379028
103	0x3ee49f1f	0.4465265
104	0x3f4abd00	0.7919464
105	0xbf406e8a	-0.7516867
106	0xbd87010b	-0.06591996
107	0x3f32dfb1	0.69872576
108	0x3dcc8b5a	0.09987517
109	0x3e8efb6c	0.27926195
110	0xbcc7898b	-0.024357578
111	0xbe09a9f3	-0.13443737
112	0xbf4a0a7f	-0.78922266
113	0xbeee2dcf	-0.46519324
114	0xbfac7787	-1.3473977
115	0xbf20eb23	-0.6285879
116	0xbf3aeb3e	-0.730152
117	0xbe81f87b	-0.25384888
118	0x3d03b9b0	0.032159507
119	0xbe9eb0fb	-0.309944
120	0x3deafaa4	0.11473587
121	0x3ee0fe17	0.43943855
122	0x3d435b78	0.047694653
123	0x3dfa9ac9	0.12236554
124	0x3e455f50	0.1927464
125	0xbf040e65	-0.51584464
126	0x3d5acf19	0.05342016
127	0xbec06a46	-0.3758108
128	0xbe7a2e33	-0.24431686
129	0xbe728c7b	-0.23686402
130	0xbe50e77a	-0.20400801
131	0xbe45f490	-0.19331574
132	0xbeeedf16	-0.46654576
133	0xbec54fb6	-0.38537377
134	0x3e819008	0.253052
135	0xbf55b086	-0.8347248
136	0xbf521404	-0.8206179
137	0xbf142ebe	-0.5788382
138	0xbe96488d	-0.29352227
139	0x3ed7c7c1	0.42144588
140	0x3eba4eb9	0.36388186
141	0x3e3a58f1	0.18197991
142	0x3f73382b	0.9500758
143	0x3f239318	0.6389632
144	0xbe0c3290	-0.13691163
145	0x3cbd329d	0.023095423
146	0x3f2df25c	0.67947936
147	0x3f1177e1	0.56823546
148	0x3f14866d	0.5801762
149	0x3f2b3dd1	0.668912
150	0x3e1dd876	0.15414605
151	0x3dd98cfb	0.10622593
152	0xbec70bd4	-0.38876212
153	0xbe65388b	-0.2238485
154	0x3dd6856e	0.104746684
155	0xbe278af9	-0.16361608
156	0x3e20d981	0.15707971
157	0xbdafb8eb	-0.08580192
158	0x3de5f0da	0.112275794
159	0x3d864211	0.0655557
160	0x3d9e663c	0.077343434
161	0x3cbb2e6c	0.022849284
162	0xbeec8471	-0.46194795
163	0x3f0019c8	0.5003934
164	0xbf404abb	-0.7511403
165	0x3d57177a	0.052512623
166	0x3f3c1926	0.73475873
167	0x3e300850	0.17190671
168	0xbe41f2de	-0.18940303
169	0x3e22343d	0.1584024
170	0xbe1d90e5	-0.15387304
171	0x3e446124	0.19177681
172	0xbe270c58	-0.16313303
173	0x3db52f66	0.08846931
174	0xbe8252ba	-0.2545374
175	0x3e17ae0e	0.1481249
176	0xbde28cb1	-0.11061991
177	0xbdef50f8	-0.116853654
178	0xbdf7decf	-0.12103044
179	0x3d0a2670	0.033728063
180	0x3ee566f3	0.44805107
181	0xbd337117	-0.043809023
182	0xbcde723b	-0.027154079
183	0x3e129240	0.14313602
184	0xbf776eda	-0.9665352
185	0xbeed0a45	-0.46296898
186	0xbda64935	-0.08119432
187	0xbf2aaec3	-0.66672915
188	0xbe4eb8bc	-0.20187658
189	0xbe754512	-0.2395213
190	0x3daaf27c	0.083470315
191	0xbd7070e7	-0.058701422
192	0xbdbad94b	-0.091234766
193	0x3f0b5e57	0.54440826
194	0x3ee0df06	0.43920153
195	0xbea9cc58	-0.33163714
196	0x3d614088	0.054993182
197	0xbc5fab55	-0.013651689
198	0x3b28f86c	0.0025782837
199	0xbf2d8d9e	-0.67794216
200	0xbe0eebf2	-0.13957193
201	0xbec146be	-0.37749285
202	0xbf849912	-1.0359213
203	0xbf0721e9	-0.5278612
204	0xbec060c5	-0.3757383
205	0xbda1d46d	-0.07901845
206	0xbecc9714	-0.39959013
207	0xbedc709e	-0.4305467
208	0xbe9a8e0f	-0.30186507
209	0xbea2576d	-0.31707326
210	0xbe838a6c	-0.25691545
211	0x3e4a2ef1	0.19744469
212	0x3e169dab	0.14708583
213	0xbd47dbb1	-0.0487935
214	0x3f5675b3	0.83773345
215	0x3f76875d	0.963003
216	0xbdadb4ad	-0.08481727
217	0x3dc8051b	0.09766599
218	0xbd39cd8e	-0.045362048
219	0xbf9615bd	-1.1725384
220	0xbf260c46	-0.6486248
221	0xbf5301f5	-0.8242486
222	0xbfc5122a	-1.5396168
223	0xbfcc1639	-1.5944282
224	0xbecdb0a3	-0.40173826
225	0x3e14259b	0.1446747
226	0xbd2250cc	-0.039627835
227	0xbf12cf51	-0.5734759
228	0x3f067683	0.52524585
229	0x3ee0256e	0.43778557
230	0xbe8b2beb	-0.27181944
231	0x3e2a5747	0.16634856
232	0xbcb60a58	-0.02222173
233	0xbf10a20e	-0.56497276
234	0xbf1b5cdf	-0.60688585
235	0xbed2932c	-0.41127908
236	0x3ebba034	0.36645663
237	0xbe94df1c	-0.2907647
238	0x3df420ac	0.11920294
239	0x3e14c61d	0.14528699
240	0xbe8d4296	-0.27589864
241	0xbca622be	-0.020280238
242	0x3e4b6b28	0.19865096
243	0xbefd85b8	-0.49516082
244	0xbef5fd87	-0.4804499
245	0xbeaa5282	-0.33266073
246	0x3ea5fdbb	0.32420143
247	0x3ec0c702	0.3765183
248	0xbe3eada1	-0.18620922
249	0x3ed18317	0.40920326
250	0x3f1a36bf	0.60239786
251	0xbe18f5e3	-0.14937548
252	0x3e605beb	0.21910064
253	0xbe3e925f	-0.18610524
254	0xbe6420a4	-0.22278076
255	0xbe993ff8	-0.29931617

conv_layers.2.bias f4 [8]
0	0xbcb833cd	-0.022485638
1	0x3dd8de50	0.10589278
2	0xbcdb614b	-0.026779791
3	0xbc6426a2	-0.013925226
4	0xbd9605d3	-0.0732533
5	0xbe82d1e5	-0.25550762
6	0xbc1bfac1	-0.009520234
7	0xbea96d2d	-0.33091107

conv_layers.5.weight f4 [8, 8, 3, 3]
0	0x3e5135aa	0.20430627
1	0x3ec7e880	0.3904457
2	0x3df4ba93	0.11949649
3	0xbb886021	-0.00416185
4	0x3ccbdc42	0.0248853
5	0x3d49e5ac	0.049291298
6	0xbe9fb9af	-0.31196353
7	0xbe21ab40	-0.15787983
8	0xbe92f29c	-0.2870072
9	0x3d8eb75c	0.06968567
10	0xbea4d9d7	-0.3219745
11	0xbef1c3ac	-0.47219598
12	0x3ccacb3c	0.024755113
13	0x3e4171f0	0.1889112
14	0xbd91182f	-0.07084691
15	0x3d4f0516	0.05054196
16	0xbe3dfa66	-0.1855255
17	0x3e961171	0.29310182
18	0x3e5e9062	0.21734765
19	0x3db9a00a	0.09063728
20	0x3fcdd1b8	1.6079626
21	0x3e0a121c	0.1348347
22	0x3ddf37e5	0.10899333
23	0xbe5066fa	-0.20351782
24	0xbeb61790	-0.35564852
25	0xbeb9cfc8	-0.36291337
26	0xbfa7eaf9	-1.3118583
27	0x3f0ff2ac	0.5622966
28	0x3e33dd27	0.17564832
29	0x3eb6a047	0.35669157
30	0xbf9932eb	-1.1968664
31	0xbf1d996b	-0.6156222
32	0xbd280b6c	-0.041026518
33	0xbe29606a	-0.16540685
34	0x3f0a5f3f	0.54051584
35	0x3d82e532	0.06391372
36	0x3b75ba5f	0.003749512
37	0xbea153d0	-0.31509256
38	0xbdf4187c	-0.119187325
39	0xbe93bb8b	-0.2885402
40	0xbf039227	-0.51394886
41	0xbe61cd52	-0.2205098
42	0x3e1d7818	0.15377843
43	0xbe877888	-0.26459146
44	0xbd90b444	-0.07065633
45	0x3f442539	0.766193
46	0xbd9f2b08	-0.077718794
47	0x3ed001f6	0.40626496
48	0xbedea405	-0.43484512
49	0xbe936adc	-0.28792465
50	0xbd884473	-0.06653681
51	0xbebfd092	-0.37463814
52	0xbd18c4e2	-0.037297137
53	0xbf1be9dc	-0.60903716
54	0x3f3c4c19	0.73553616
55	0x3e707379	0.2348155
56	0xbc3dd0d2	-0.011585431
57	0xbe2176b7	-0.15767942
58	0xbe7fe25c	-0.24988693
59	0xbe303244	-0.17206675
60	0xbf44eb0a	-0.7692114
61	0xbdf23c8e	-0.11827956
62	0xbe55cc7c	-0.20878786
63	0x3f721cc3	0.94575137
64	0x3f180c95	0.593942
65	0xbda5a273	-0.08087625
66	0x3e5e329b	0.21698992
67	0x3d28b3d9	0.04118714
68	0x3d7825bc	0.06058286
69	0xbe5b083b	-0.21389858
70	0xbda42ced	-0.080163814
71	0xbe973e06	-0.29539508
72	0x3f01b06b	0.5065982
73	0xbcae016d	-0.021240914
74	0xbf35f7f7	-0.7108149
75	0x3ec170a6	0.37781256
76	0x3e07b1a2	0.13251355
77	0xbf08f250	-0.5349474
78	0x3e75cbe4	0.2400356
79	0xbdbc5736	-0.09196322
80	0xbf048aae	-0.5177411
81	0xbec3427e	-0.38136667
82	0x3d9095f3	0.070598505
83	0x3d733891	0.059380118
84	0xbe6cc575	-0.23122199
85	0x3ec48882	0.38385397
86	0x3f150bc5	0.58221084
87	0xbe794b2c	-0.24345082
88	0xbd4ca5e7	-0.049962904
89	0x3f147d1f	0.5800342
90	0x3dfbad1b	0.122888766
91	0xbfe32216	-1.7744777
92	0x3f22b789	0.635613
93	0x3f3afcae	0.7304181
94	0xbf312280	-0.6919327
95	0xbe1afde9	-0.15135922
96	0x3f00f062	0.50366795
97	0x3f01496b	0.5050265
98	0xbd45da67	-0.048303988
99	0x3f8edbe6	1.1160858
100	0x3e8dc090	0.27685976
101	0xbf63e8e8	-0.8902726
102	0x3f8e1fde	1.1103475
103	0x3ebb689e	0.36603254
104	0xbf94ca5d	-1.1624256
105	0x3f7aa835	0.97912914
106	0x3f4f701d	0.81030446
107	0x3d7f2b78	0.062297314
108	0xbd316be7	-0.043315794
109	0x3d0cd6d3	0.03438456
110	0x3e6702d1	0.22559668
111	0xbdbedd45	-0.093195476
112	0xbebc513d	-0.3678073
113	0xbe4957f7	-0.19662462
114	0xbe5a4f28	-0.21319258
115	0x3db29863	0.08720472
116	0x3c4fab41	0.012675107
117	0x3f113bba	0.5673176
118	0xbda7f31b	-0.082006656
119	0xbf26f706	-0.6522068
120	0x3f41eba6	0.75750196
121	0x3df1d856	0.11808841
122	0xbf49c388	-0.7881398
123	0x3f368be0	0.7130718
124	0x3e9823fe	0.2971496
125	0xbd1ce2b1	-0.038302127
126	0x3f414a5b	0.7550408
127	0x3f1cbcbc	0.61225486
128	0xbf337a85	-0.70108825
129	0x3f141da8	0.5785775
130	0x3f0623c1	0.52398306
131	0xbeecc456	-0.46243542
132	0x3f49dd75	0.7885354
133	0x3dabd597	0.083903484
134	0xbd09d74e	-0.033652596
135	0x3f1aeca6	0.60517347
136	0xbe6bfa61	-0.2304473
137	0xbf894bfa	-1.0726311
138	0x3eb88317	0.36037514
139	0x3eae727b	0.34071717
140	0xbf11d288	-0.5696187
141	0x3f8cc8b0	1.0998745
142	0x3e9c2606	0.3049776
143	0xbc46033f	-0.012085735
144	0xbe00b693	-0.12569647
145	0x3e32b228	0.17450774
146	0x3d399899	0.045311544
147	0x3da55e92	0.080746785
148	0x3ebbe7e1	0.36700347
149	0xbd5cc567	-0.053899195
150	0xbea72ad1	-0.32649854
151	0xbe8a3936	-0.26996773
152	0xbdf049fa	-0.1173286
153	0x3d95a612	0.07307066
154	0xbd60984a	-0.054832734
155	0x3d671f53	0.056426357
156	0xbae92b1c	-0.0017789337
157	0xbd0e0861	-0.03467596
158	0x3e07ad41	0.13249685
159	0x3e04154f	0.12898754
160	0x3d7e0d73	0.062024545
161	0x3df76fc5	0.12081865
162	0x3eb370f3	0.3504711
163	0x3f02864b	0.50986165
164	0x3f370a82	0.7150041
165	0x3f1877a7	0.59557575
166	0x3f0898bf	0.5335807
167	0xbea22097	-0.3166549
168	0xbf3ba490	-0.7329798
169	0xbf11db57	-0.5697531
170	0xbf76900d	-0.96313554
171	0xbe5246ba	-0.20534793
172	0x3e32702a	0.174256
173	0x3db04349	0.086065836
174	0xbf622141	-0.8833199
175	0x3ef64161	0.48096755
176	0x3f0c345c	0.54767394
177	0xbf61618b	-0.88039464
178	0xbef1d27e	-0.47230905
179	0xbf03a4cf	-0.5142335
180	0xbe4bd012	-0.19903591
181	0xbf50242e	-0.81305206
182	0xbd3ee3ec	-0.046604082
183	0xbe95c3cc	-0.29250944
184	0xbe21cce9	-0.15800823
185	0x3dd8f270	0.10593116
186	0x3ce44ff6	0.02787016
187	0xbd92a470	-0.0716027
188	0xbd2805a1	-0.041020993
189	0x3e4e60c4	0.201541
190	0x3d6c52b4	0.05769606
191	0xbe7dd5f8	-0.24788654
192	0x3e166794	0.1468795
193	0x3f0b2c45	0.54364425
194	0x3e194255	0.1496671
195	0xbf449a8c	-0.7679832
196	0xbf330387	-0.6992726
197	0xbf1834e7	-0.5945572
198	0xbef1c29f	-0.47218797
199	0x3daf0ec5	0.08547739
200	0x3e65e7da	0.22451726
201	0xbea0918f	-0.31361052
202	0x3d38ea6c	0.045145437
203	0x3e879a1c	0.26484764
204	0x3ca0373a	0.019557584
205	0xbf18e101	-0.5971833
206	0xbef5f4ba	-0.48038274
207	0x3efbe461	0.49197677
208	0x3f050bc0	0.51971054
209	0x3e6a231c	0.22864956
210	0xbd27b5f6	-0.040945016
211	0x3db6377a	0.088973
212	0x3d049693	0.03237016
213	0xbf4b49cb	-0.79409474
214	0xbe6ae948	-0.22940552
215	0x3e89d5c3	0.269209
216	0xbe4302ce	-0.19044039
217	0xbe54cccb	-0.20781247
218	0xbe91db55	-0.2848765
219	0xbdab886b	-0.08375629
220	0xbca28f5a	-0.019843746
221	0xbd4fa385	-0.050693054
222	0x3dee7012	0.116424695
223	0x3d26296b	0.040566843
224	0x3db25d40	0.08709192
225	0x3edda4fe	0.43289942
226	0x3e805ae0	0.25069332
227	0x3eb5721a	0.35438615
228	0xbd08b7c3	-0.033378374
229	0x3e12797b	0.14304154
230	0x3b760c0c	0.0037543802
231	0x3df73d88	0.12072283
232	0xbe5b03d4	-0.21388179
233	0xbd23dbec	-0.040004656
234	0xbef96208	-0.48707604
235	0x3ed84f6a	0.42248088
236	0x3d4df315	0.05028065
237	0x3da368d9	0.079789825
238	0x3ef8abf2	0.48568684
239	0x3f8041a1	1.0020028
240	0x3f2f45e1	0.68466
241	0x3f3ab409	0.7293096
242	0x3f799a68	0.9750123
243	0x3dcfce1c	0.10146734
244	0x3de25d67	0.11052971
245	0x3e946945	0.28986564
246	0x3ec8b6a9	0.3920186
247	0x3eff1831	0.49823144
248	0x3edea731	0.43486932
249	0xbde15026	-0.11001615
250	0x3eee3fec	0.46533144
251	0x3f3dfad0	0.74210835
252	0x3a299a54	0.0006469835
253	0x3d85e2e5	0.06537417
254	0xbe37a9b9	-0.17935838
255	0xbd8f9e2d	-0.070125915

conv_layers.5.bias f4 [8]
0	0xbd76a158	-0.060212463
1	0xbe8a4f64	-0.27013695
2	0xbda7fd66	-0.08202629
3	0x3df6a52c	0.12043223
4	0xbdfea13e	-0.12433098
5	0xbe2905b2	-0.16506079
6	0xbdf2b3b9	-0.118506856
7	0xbe1fb751	-0.15597273

fc_layers.0.weight f4 [16, 288]
0	0x3bc3096f	0.0059520523
1	0xbb1b9f22	-0.0023745974
2	0xbcc05e6e	-0.023482528
3	0x39b9cc60	0.0003543822
4	0xbcc2114b	-0.023689887
5	0x3d1d8164	0.038453475
6	0xbd29ac05	-0.041423816
7	0xbd2950ee	-0.041336946
8	0xbd8c1c2d	-0.068413116
9	0xbc704d6d	-0.014666897
10	0xbd4b803d	-0.049682844
11	0xbd1e3474	-0.038624242
12	0x3bc4cebe	0.006006091
13	0xbd75eb48	-0.060038835
14	0x3a09f9bf	0.00052633503
15	0xbbee4846	-0.0072717993
16	0xbc85a928	-0.016316012
17	0x3d0212bd	0.03175615
18	0xbc56f62a	-0.0131202135
19	0x3b2e9795	0.0026640643
20	0xbc6ea26b	-0.014565091
21	0x3d2e77e9	0.042594824
22	0xbd470541	-0.048588995
23	0xbd93a506	-0.0720921
24	0x3c68c0fb	0.014206166
25	0x3cd403e3	0.02588076
26	0x3cf41a34	0.02979765
27	0xbd2788df	-0.040902015
28	0x3d1398b9	0.03603432
29	0xbcf0e3c5	-0.029405484
30	0x3d10a1c6	0.03531053
31	0x3bb4bc18	0.0055155866
32	0xbd702d39	-0.058636878
33	0x3c46e616	0.012139818
34	0xbcce158f	-0.025156764
35	0xbd82a93a	-0.06379934
36	0xbcf0e6c0	-0.029406905
37	0xbcb4ffd3	-0.022094643
38	0xbd603d35	-0.05474587
39	0xbd33f50d	-0.04393487
40	0xbcc3a91e	-0.023884352
41	0xbd02d8fb	-0.03194521
42	0xbd1b9b31	-0.0379898
43	0xbc85ec36	-0.016347986
44	0xbcd10e08	-0.025519386
45	0x3c4f6a28	0.012659587
46	0xbd590671	-0.05298466
47	0xbdf37280	-0.118870735
48	0xbd6760a3	-0.056488644
49	0x3cd7bc11	0.026334794
50	0xbb6baafa	-0.0035960064
51	0xbca6a8fe	-0.020344254
52	0xbd334cd0	-0.043774426
53	0x3cc6929b	0.024239829
54	0x3ca63be3	0.020292228
55	0xbc77bc07	-0.015120513
56	0xbd1ace8d	-0.03779464
57	0xbc32ba3b	-0.010908659
58	0xbcce20dd	-0.025162155
59	0xbd864d79	-0.065577455
60	0xbd8fcf88	-0.07022005
61	0x3cb30851	0.021854552
62	0xbd4b87a1	-0.049689893
63	0x3cb9ea12	0.022694621
64	0x3cd945cc	0.02652254
65	0x3a816aea	0.0009873782
66	0xbcdac886	-0.026706945
67	0x3c319d6d	0.010840756
68	0xbd8b7467	-0.06809311
69	0x3d1272b7	0.03575393
70	0xbd9c9bba	-0.0764689
71	0xbb32472e	-0.002720307
72	0xbd568852	-0.0523761
73	0xbce61e98	-0.02809076
74	0xbd17ab86	-0.037028812
75	0xbd094850	-0.03351623
76	0xbc28b196	-0.010296246
77	0x3ca2b108	0.019859806
78	0xbda12a1f	-0.07869362
79	0xbc8a37dd	-0.01687234
80	0xbd83ede5	-0.06441859
81	0x3bdb405d	0.0066910223
82	0x3d1aa30d	0.037753154
83	0xbb58b80d	-0.0033068687
84	0xbd0fd323	-0.035113465
85	0xbc837ac6	-0.016049754
86	0x3d057d64	0.032590285
87	0xbd3a46ea	-0.045477785
88	0xbd867c9a	-0.065667346
89	0x3a8c7cdb	0.0010718362
90	0xbd51054b	-0.05103044
91	0xbdc03e4b	-0.093868814
92	0xbd388f97	-0.045058813
93	0x3c1b045a	0.009461487
94	0x3cce612a	0.025192816
95	0x3d18f082	0.03733874
96	0xbd44c13d	-0.04803585
97	0xbd8e0605	-0.06934742
98	0x3d70662f	0.0586912
99	0x3c6c1dcf	0.014411404
100	0xbc103114	-0.008800764
101	0xbb38129c	-0.0028087264
102	0xbd30b9e3	-0.043146025
103	0xbb7af226	-0.0038291304
104	0xbc2dfd20	-0.010619432
105	0xbca6ae7e	-0.020346876
106	0xbce73c40	-0.028226972
107	0x3c9bcd86	0.0190189
108	0xbdc112c2	-0.09427406
109	0xbd9bd933	-0.07609787
110	0xbda207c2	-0.07911636
111	0xbd829d72	-0.063776866
112	0xbcf20a11	-0.029545816
113	0xbd23bf2a	-0.03997723
114	0xbd4e4062	-0.05035437
115	0xbd808087	-0.06274515
116	0xbdf30861	-0.118668325
117	0xbe155b80	-0.14585686
118	0xbd88a066	-0.066712186
119	0xbdaba012	-0.0838014
120	0xbd4b7355	-0.049670536
121	0xbd452aef	-0.048136648
122	0xbd5fc004	-0.05462648
123	0xbd8a146e	-0.06742178
124	0xbdbf019d	-0.093264796
125	0xbdcc3f32	-0.09972991
126	0xbc3f7e51	-0.011687831
127	0xbcfe28f2	-0.031025384
128	0xbdee5971	-0.11638153
129	0xbd4f9ed2	-0.050688572
130	0xbe013565	-0.12618025
131	0xbe00c353	-0.1257451
132	0xbdb6b9a8	-0.0892213
133	0xbd91690d	-0.07100115
134	0xbdba66a2	-0.09101607
135	0xbcdafacc	-0.026730917
136	0xbd8eb211	-0.06967557
137	0xbdd51a51	-0.1040541
138	0xbdb2b850	-0.08726561
139	0xbd44cc00	-0.048046112
140	0xbd841ccc	-0.06450805
141	0xbd905b7f	-0.070487015
142	0xbd97d950	-0.07414496
143	0x3c024622	0.007951291
144	0xbbbf9a2c	-0.005847236
145	0x3ce6c432	0.028169725
146	0x3d3b5e95	0.045744497
147	0xbd566125	-0.052338738
148	0x3c9330e1	0.017967643
149	0x3c660e03	0.014041427
150	0x3d139e63	0.03603972
151	0x3cee322a	0.029076654
152	0xbd2d3c68	-0.042293936
153	0xbcb42b8f	-0.021993427
154	0x3bfc2f16	0.007696043
155	0xbd38c84f	-0.045112904
156	0xbc778815	-0.015108128
157	0x3d53c005	0.051696796
158	0xbd173450	-0.036915123
159	0xbd2d7fad	-0.04235809
160	0xbab97673	-0.001414968
161	0x3d04ecd2	0.032452412
162	0x3d37e0bb	0.044892054
163	0x3d3e5983	0.046472084
164	0xbd27e73b	-0.040992003
165	0xbd2b055d	-0.04175316
166	0x3d445906	0.047936462
167	0x3cfc6645	0.030810485
168	0x3d193212	0.037401266
169	0xbb769a24	-0.0037628496
170	0xbd70aea4	-0.0587603
171	0xbd52e504	-0.051487938
172	0xbd4cd5a4	-0.05000843
173	0xbd27d807	-0.040977504
174	0xbc9ea891	-0.019367488
175	0x3b2f0b7a	0.0026709721
176	0xbcded5d3	-0.027201569
177	0x3d4967b3	0.04917116
178	0x3d5bbee0	0.05364883
179	0xbd5c0a72	-0.0537209
180	0xbd240acf	-0.04004937
181	0x3d6db38e	0.058032565
182	0x3cda55f6	0.026652317
183	0xbd4a8092	-0.04943902
184	0x3cac6da1	0.021048369
185	0x3d425c52	0.047451325
186	0x3d2be398	0.041965097
187	0xbc906bdc	-0.017629556
188	0x3d1c02d8	0.03808865
189	0xbcf0965f	-0.029368578
190	0x3c2ab3d1	0.010418848
191	0x3ce7fbcb	0.028318306
192	0x3d50dfd8	0.050994724
193	0x3d20fc08	0.039302856
194	0x3cfc1050	0.030769497
195	0x3d7090b5	0.058731753
196	0xbd627667	-0.0552887
197	0xbccac340	-0.024751306
198	0xbbf5e8e4	-0.0075045694
199	0xbd63e02f	-0.05563372
200	0xbbc4590a	-0.0059920596
201	0xbd41de71	-0.047331277
202	0xbc0fe3ab	-0.008782308
203	0xbc839293	-0.016061103
204	0x3d17453e	0.03693127
205	0x3ce9f830	0.028560728
206	0x3d0b9ba9	0.034083996
207	0x3cc919f5	0.02454851
208	0x3d0fc939	0.03510401
209	0x3aefe52b	0.001830255
210	0x3d6ede6d	0.05831759
211	0x3d3e069d	0.046393026
212	0x3d1d4532	0.038396068
213	0x3c09cb70	0.00841032
214	0x3cc576c1	0.024104478
215	0x3d5078e2	0.050896533
216	0x3c6d9d3e	0.0145028215
217	0xbcc4469c	-0.02395945
218	0x3ce09917	0.027416749
219	0xbd35de17	-0.044401255
220	0xbcd51d53	-0.02601496
221	0xbcafecb1	-0.021475168
222	0xbce5fdce	-0.028075125
223	0x3d3721df	0.044710036
224	0xbd5ee516	-0.054417692
225	0x3c6cf50b	0.01446272
226	0xbd0806c3	-0.033209573
227	0xbc73d3e9	-0.014882066
228	0xbd298cf1	-0.041394178
229	0xbd210380	-0.03930998
230	0x3d0af7cd	0.033927727
231	0xbbee142f	-0.0072655897
232	0x3c9320e6	0.017960023
233	0xbd5f2405	-0.05447771
234	0x3d06f769	0.032950792
235	0x3c76ac0e	0.0150556695
236	0x3d3472f8	0.044054955
237	0x3d5085b7	0.05090877
238	0x3d615730	0.05501479
239	0x3d3449ea	0.044015802
240	0x3d0f671f	0.035010453
241	0x3d6e4f5e	0.05818116
242	0xbd5b2843	-0.053505193
243	0xbc9218da	-0.017834116
244	0x3d23ecda	0.0400208
245	0xbb933eaf	-0.0044935565
246	0xbd0c0758	-0.03418669
247	0x3cc316f0	0.023814648
248	0xbd30da29	-0.043176804
249	0x3d2f7872	0.042839475
250	0x3c97584c	0.01847472
251	0x3be7e28f	0.0070765684
252	0x3d4a7472	0.049427457
253	0xbcc0dbba	-0.023542274
254	0xbcbd49f1	-0.023106547
255	0x3c9431d0	0.018090159

fc_layers.0.bias f4 [16]
0	0xbd9d4f1b	-0.07681104
1	0xbd937312	-0.07199682
2	0xbdaf467f	-0.08558368
3	0xbf3b1039	-0.7307163
4	0x4003cf07	2.059511
5	0xbc92c12f	-0.017914383
6	0xbdbb86cd	-0.091565706
7	0xbed656e2	-0.4186316
8	0xbf03b828	-0.51452875
9	0xbdc9f2d7	-0.09860771
10	0xbe4c48c9	-0.1994964
11	0xbefb18b2	-0.4904228
12	0xbf2e7ed8	-0.681623
13	0xbef39814	-0.47576964
14	0xbda53adc	-0.08067867
15	0xbd81935d	-0.063269354

fc_layers.2.weight f4 [1, 16]
0	0x3d75974b	0.059958737
1	0x3de4d89d	0.11174128
2	0x3c039d94	0.008033175
3	0xbe496be6	-0.19670066
4	0x3f7d5017	0.9895033
5	0xbec756c0	-0.38933372
6	0x3dd4e050	0.10394347
7	0xbf72e6e2	-0.9488355
8	0xbf92b4ae	-1.1461389
9	0x3dc0b5e4	0.09409693
10	0xbfa0f6fe	-1.2575376
11	0xbf93965d	-1.1530262
12	0xbdce0897	-0.10060232
13	0xbf836d3a	-1.0267708
14	0x3d020ac2	0.03174854
15	0x3de6ff54	0.11279169
