src/encoder.pth (torch, 28033 bytes, 12 tensors)

conv_1.weight f4 [16, 3, 3, 3]
00000000: bbba 8ebd ec08 333d 8095 b7bc abbb bebd
00000010: 5a66 b3bd 78d5 463d a808 babc 8464 54bd
00000020: 98fe 66bd 7827 193d ac2e 61bd a09b f3bb
00000030: 9000 f7bc 30a9 13be a24b 8f3d 0e8c 2ebe
00000040: 4657 8f3d d36e 32be 604d b5bb 2ecf 3abe
00000050: f2e9 3fbe da80 cd3d c59c 28be 26a6 1cbe
00000060: 501f 2bbd a0a7 b3bc 7c93 783d f2a5 89be
00000070: 7949 9ebe 5858 cebd caa0 87bd 21b0 d9bd
00000080: 1971 18bd 2de3 cc3d 2c48 93bd 8e56 2d3d
00000090: 1768 1abd b88f 513d 31fc 5f3d b7d1 eb3c
000000a0: 3a54 0c3e 2fc5 fbbd 4a12 893d a2d7 0b3d
000000b0: aaad 74bc 3c0a 5c3d 1f7d 353d 9b98 09be
000000c0: bade 2f3d 3824 093c 1f20 7b3e 8ce9 523e
000000d0: c400 273e e260 883e 0229 9fbe a95f 6fbe
000000e0: 4363 19bc 8460 c9bc 13e2 873e b8ed 51bc
000000f0: e52f 063e e8af a53d 5108 40be 40a0 643e
00000100: e2bf f03d c9ee 9cbc 3d59 0dbe 7c12 8abe
00000110: 1adf 063e 7d27 403c 31cb 1dbd 17d0 4a3f
00000120: c235 b33d da02 7c3e 1787 8bbd 61ec 773e
00000130: 26af 3c3d bee9 d1bd 8565 24be 4c29 43bd
00000140: 1397 32bf 21ec 00be b0e1 993d 944d 1a3d
00000150: dde2 59bd 35b3 2ebd 3c64 04be feae 5fbd
00000160: da68 a53d b6b0 f73c c146 6bbe 49b5 a6ba
00000170: 043b d1bd 1eea 863d 9ed6 f13d cf85 a63d
00000180: 259a b53c 3286 78bd 1521 8ebd 9d5c 213d
00000190: ea60 b0be 052f 28bd 4ca6 96bd 2606 803c
000001a0: 3847 9b3d 9fdb 94bd 1258 423c 5c80 533d
000001b0: 76c9 39be dded 67bc 1716 f93d 34bd 933c
000001c0: 0a76 143e 8f83 af3d 66aa e2bd a976 303d
000001d0: 43e5 103d cecd cb3d dba6 16be d827 80bd
000001e0: 5554 52bb 479d a2bd dd64 eb3d f247 33be
000001f0: 7d50 37be e20b 4bbd e185 1c3e 6070 8bbd
00000200: 645e 19be 6be4 17bc 7373 79bd 57ea 0ebe
00000210: 68f7 b7bd 2e7e c9bc e4c6 8bbc 5af3 d53c
00000220: 1994 043d 59dc 673e 7479 ee3d aac1 afbd
00000230: 4b9a a53d 972b 93bd 8e8b 94bd ecee 123c
00000240: 307d bf3d 8a69 a53d 8cb9 713e c596 9fbd
00000250: 5b4c 57bd ee08 82bd e5a9 113e fe98 613d
00000260: 2b64 57bd 739c ffbd 4264 843d 5310 ad3e
00000270: 8b1b 87be e86a 583e e05c 5f3e 2997 c9be
00000280: 1de0 52be 2c8a 953c 13c6 1dbe 5cef 8abe
00000290: 18f3 bf3d e77e 37be f067 03be deb7 143d
000002a0: 3d84 fc3d 83ad 933d 906e 31be e354 263f
000002b0: 63d0 d33c 0c21 643c 12c7 8a3e 75b6 e3bd
000002c0: 105f 2ebe 1d67 0c3d e174 0dbd cad2 00bd
000002d0: ff3b 8d3e b957 0c3e 1d9f 89be e4f6 57bd
000002e0: 6bb1 133d cbd3 97bd ecbf d7bd dda6 6cbe
000002f0: ae68 883b 608e 4ebd 8d6a 8f3d 731c 8b3e
00000300: bad2 833d 3c2f 36bd 3bb1 c83d d452 983e
00000310: 0829 133d 2b35 5dbc 0655 88be da9a 78be
00000320: 09c7 663d 0ca1 34bd af3c 293e f9f3 cdbc
00000330: 16b0 69bc eed8 32be f050 a83b 5b56 a7bd
00000340: 3684 1d3d dc86 313e 39af c2bc 9262 71bd
00000350: 7202 04be ecee 003e 8e61 2fbe 0d07 efbd
00000360: 0ee0 823d cacb b33d 1189 8b3e fe4b 72bc
00000370: 7e3e c73a 72fd 743d 6f9c 693e ddf0 01bd
00000380: c30f 703e 8f57 1cbd 66e7 6dbd 1320 f6bd
00000390: 516c f33b f5c5 c73d ebb9 11bd a6ba 0abe
000003a0: 1e66 b43d 5590 73bc f9f0 e63d 1910 00be
000003b0: d857 05bd a3dc fdbd 263c 59be 2b0a b0bd
000003c0: 78ca 56be b632 84be fbb4 5e3d bdca bb3d
000003d0: e7e5 38be 74b5 c0ba 7c8f 0bbe 5f07 46bd
000003e0: 4c7f 1c3d a8e2 1b3d 4035 f1bd dcdd 01be
000003f0: 3817 88be 6f54 fabc 24c6 ea3d 4701 a1b9
-0.0696921 0.04370968 -0.022410154 -0.093131386 -0.087597564 0.048543423 -0.022709206 -0.05185367
-0.056395143 0.037391156 -0.05497615 -0.0074343234 -0.030151635 -0.14420009 0.06996848 -0.17045614
0.06999068 -0.17425089 -0.0055329055 -0.18243095 -0.18741587 0.10034342 -0.16466053 -0.15297756
-0.04177791 -0.021930516 0.060687527 -0.2688442 -0.3091543 -0.10075444 -0.06622465 -0.10629297
-0.037217233 0.10004268 -0.071915 0.042318873 -0.037696924 0.05116245 0.054683868 0.028786523
0.13704005 -0.12293469 0.066929415 0.03414119 -0.014933983 0.053720698 0.044308778 -0.1343712
0.042937018 0.008370452 0.24523972 0.20596904 0.16308886 0.26636416 -0.31085974 -0.23376335
-0.009362045 -0.024582155 0.26539668 -0.012813024 0.13104208 0.08090192 -0.18753172 0.22326756
0.11755349 -0.01915683 -0.13803573 -0.26967227 0.13171044 0.011728165 -0.038523857 0.7922377
0.08750488 0.24610463 -0.06812876 0.24211265 0.046065472 -0.10249661 -0.16054352 -0.047646806
-0.6976177 -0.12590076 0.075137496 0.03767164 -0.05319487 -0.042651374 -0.12928861 -0.054610245
0.080766395 0.03023563 -0.22976209 -0.0012718822 -0.102163345 0.06587623 0.11808513 0.08130991
0.022168228 -0.060674854 -0.06939904 0.039394964 -0.3444894 -0.041060466 -0.07355937 0.015627932
0.07581943 -0.07268452 0.011861818 0.051636085 -0.18143257 -0.014155832 0.121624164 0.018034555
0.14498153 0.08570015 -0.11067657 0.043081913 0.03537489 0.099513635 -0.14712088 -0.062575996
-0.0032093723 -0.079401545 0.114938475 -0.17507914 -0.17901798 -0.04957188 0.15285446 -0.06808543
-0.14977413 -0.009270768 -0.060901117 -0.13956581 -0.08982736 -0.0245963 -0.017062612 0.026117016
0.0323678 0.2264265 0.11644259 -0.0858186 0.0808607 -0.071860485 -0.072531804 0.008968096
0.093500495 0.080767706 0.23605937 -0.07792429 -0.052563053 -0.063493595 0.14224966 0.055077545
-0.052585762 -0.12481012 0.06464435 0.33801517 -0.263882 0.21134531 0.21812773 -0.3937314
-0.20593305 0.018254362 -0.1540759 -0.27135742 0.09372538 -0.17919503 -0.12832618 0.036308162
0.1232991 0.07210829 -0.17327332 0.64973277 0.025856202 0.013923895 0.27105004 -0.11118785
-0.17028451 0.034278024 -0.034535293 -0.031451024 0.27584836 0.13705339 -0.26879206 -0.052725688
0.03605787 -0.07413443 -0.10534653 -0.23110528 0.0041628694 -0.050428748 0.07002745 0.27170143
0.06436677 -0.04447864 0.09799429 0.29750693 0.035927802 -0.013501446 -0.26627368 -0.24277821
0.05634216 -0.0440989 0.16527055 -0.02514075 -0.014263174 -0.17465565 0.0051366016 -0.08170768
0.038456164 0.17336601 -0.023765193 -0.058931895 -0.12891558 0.12591141 -0.17127058 -0.11671267
0.06390391 0.08779104 0.2725301 -0.014788626 0.0015201119 0.059812017 0.22813581 -0.031723846
0.23443513 -0.03816944 -0.058082007 -0.120178364 0.007428684 0.09754554 -0.035577696 -0.13547763
0.0880854 -0.014865954 0.11276431 -0.12506141 -0.032554477 -0.12395599 -0.21214351 -0.085956894
-0.20975673 -0.2581994 0.054371815 0.09169529 -0.18056451 -0.0014702515 -0.13628954 -0.048346873
0.038207337 0.038057953 -0.11777735 -0.12682289 -0.26580215 -0.03055784 0.114635736 -0.00030709265

conv_1.bias f4 [16]
00000000: f44b 89bd 2f33 94b9 15c7 e33d 2019 d43e
00000010: 3e73 2cbe d46d ecbe 7d64 82bb f3b7 803d
00000020: 2682 ad3d 0710 c13e c57b 533c 5586 43be
00000030: c685 973e 4b10 883e 36d9 8438 72d0 163f
-0.0670394 -0.00028266895 0.11121956 0.4142542 -0.16840836 -0.46177542 -0.0039792643 0.062850855
0.084720895 0.3770754 0.012907927 -0.19094212 0.2959425 0.2657493 6.334709e-05 0.5891181

conv_2.weight f4 [12, 16, 3, 3]
00000000: acda a53c 6cf6 bbbc d040 a03b a089 e0bc
00000010: c327 1abd fe75 93bd ec42 933c 4ac2 383d
00000020: 2c8f bebc 5c1f 02be cbb2 adbe d875 703e
00000030: 43a4 7f3e c777 b23b fff2 29be b664 5abe
00000040: f752 c3bd fb3f 063e 6c1f f1bd 7ee8 26bd
00000050: 80d9 d33c e2e4 d1bd 5471 cabd bb5b 583d
00000060: de16 33be 7d61 383e c66c 983e 570c cebd
00000070: cea7 aebe da86 b03c b463 0ebf 1254 673d
00000080: 232b 0ebd e327 833e f200 f73d ecea b03d
00000090: 01d5 f4bc dffc ffbc 8b29 663d 7d69 ed3c
000000a0: b719 fb3b a1bd 95bd 484e 433d b418 8abd
000000b0: 61c2 3cbd ec30 35bf 4b0b 543d e62d 263e
000000c0: 3b82 37be 8068 343e 78bb 033e 169a d83e
000000d0: 5fc1 b73d ee63 0f3e 44ef 1f3e e4aa 5dbd
000000e0: 04df 903e 14a3 253e 0824 303e 1e44 2fbe
000000f0: ec98 f03c 2c67 c1bc 05f7 c3bd 239b 0e3d
00000100: da37 2fbd aa14 07be ec05 dfbd 1b6b d93c
00000110: a1be 953d 29e5 b4bd 1df9 2fbe 4a4f b0bd
00000120: a14d cf3d d8da 9a3d 46ed 2bbe 3c58 7abe
00000130: e719 5f3e fb6e d4bd 2a11 a6bb b358 38bc
00000140: 831f 71bc 97d1 243f 5618 ef3e eabb 4bbe
00000150: 3353 303b 370d d73e f0e6 78be e389 033e
00000160: 772c a6be 821a 7cbe 753a e03d 77f2 bfbd
00000170: 9ece 133d 9766 853d ef9f e9bd 6836 003e
00000180: 43f4 aabd a815 583d 77e5 313e 8be5 57bd
00000190: e6cc 393d f8d8 793c e8d2 6a3c b697 dcbc
000001a0: 4740 8ebd fbe5 2fbd 5fc9 893d 3d9b 9b3d
000001b0: 53e9 11bf 69de 2dbe 3342 133e 3e25 823f
000001c0: c446 25bc 1770 cfbd 90e3 f7bc 908e 833d
000001d0: e63e b7bd ec42 a3bd a031 c3be afea 16bf
000001e0: 8db8 96bd 18fc b7bc d9e8 44be b6a1 5bbe
000001f0: 4297 b5be 9465 5abe b395 173e 452c 9abd
00000200: d60d 04bd cdfc f93d 602b c2bc eb2e abbc
00000210: e97a 0abd ac8c 9cbd 1fc3 ee3d d1ed 28bf
00000220: 20ac 4dbe 963c 573f 793a 27bd 9bac e8bd
00000230: 1db0 9f3d 5ecf 61bd dfd7 e73e 62ee 393e
00000240: b0d4 bc3c 7e05 94bd bc75 91bd 160d 6d3d
00000250: ab38 44bd 9a5a 96bd b3f3 8c3d 3e77 3f3d
00000260: be76 3d3d 5e1e 763d c5df 433e 892e 65bc
00000270: de96 a1bd aa3f 30be 2130 073e 8d07 0ebe
00000280: 25bb 34be 7e96 95bd 0969 02be e3d7 fcbd
00000290: d790 b9be dd2d 173e 971e 583e 3b0a 2f3e
000002a0: e4ad 3ebd 0482 a4bd 3733 1dbe 0020 ccbc
000002b0: b3e1 dabd 5ed3 6fbd 2649 34bd f92b 4ebe
000002c0: f755 0bbe faee 823d 6498 d83d 77b2 1cbd
000002d0: 93d3 e53c cb26 943d e2d1 653d 35e5 3d3d
000002e0: 4a00 6c3d 2685 80bd f8b9 31bc f5e9 9b3d
000002f0: 2700 a3bd 156a 553c 7489 503e a095 e63e
00000300: 5210 b53d 6d38 7f3d 5f64 9fbc dc0f d2bd
00000310: 893e 1b3e 03cd 6c3e a663 8abb 64fc d33d
00000320: 8386 e03d 4faa 46be f119 903d 4f60 323e
00000330: 6e64 a9bb 3535 c1bd 1c7d 41bd fafe 103d
00000340: 9911 08be 8e65 06be 6f32 f1bc 8928 313e
00000350: 9918 cebd e100 00be a357 2a3d fd32 803c
00000360: 7789 d53d 48f1 3e3e 57fe 263e ed89 0dbe
00000370: fdd7 aa3d e5e3 ae3c cec8 4abe dadd bb3d
00000380: c000 9e3d ba46 89be 0468 8cbe b65b b3be
00000390: 3009 70bd d200 4a3e f8cb c13d 84c2 7c3d
000003a0: b256 f83d e275 10bc d033 8e3c 9498 f0bd
000003b0: 0e33 243e 589a 6cbd d7f6 03bd e1c9 84be
000003c0: ac56 9dbd bb23 8abd 47ec cbbb f9eb 933d
000003d0: d64e 313d 8e47 593d 1b55 61bd 70c0 6abd
000003e0: 53a6 19bd 44a8 ed3c e041 683b 5837 4c3c
000003f0: 5701 433d 5172 83bc 1201 11be 96be 4c3e
0.020245872 -0.022944652 0.0048905388 -0.027409375 -0.037635576 -0.072002396 0.017976247 0.045107163
-0.023261629 -0.12707275 -0.3392547 0.23482454 0.24965005 0.0054464075 -0.16596602 -0.2132748
-0.09537309 0.13110344 -0.11773571 -0.040749066 0.025860548 -0.10248734 -0.09884897 0.052821856
-0.17489192 0.18005939 0.29770488 -0.100609474 -0.341124 0.021548677 -0.55620885 0.05647666
-0.034709107 0.2561637 0.12060727 0.08638558 -0.029886724 -0.031248508 0.056191962 0.028980965
0.0076629776 -0.073115595 0.047682077 -0.06742993 -0.04608381 -0.70777774 0.051768582 0.16228446
-0.17920773 0.17617989 0.12864482 0.42305058 0.089724295 0.14002964 0.15618616 -0.054118052
0.28295147 0.1617549 0.17201245 -0.17115828 0.029369794 -0.023608766 -0.095685996 0.03481592
-0.042777874 -0.13191476 -0.108898014 0.02654033 0.0731175 -0.08832771 -0.17184873 -0.08608873
0.101222284 0.075612724 -0.16789731 -0.24447721 0.21787225 -0.1037273 -0.005067964 -0.011251616
-0.014716986 0.6438231 0.46698254 -0.19895902 0.002690506 0.4200227 -0.24306846 0.12845568
-0.324558 -0.24619487 0.1094865 -0.093724184 0.036085717 0.06513708 -0.11407458 0.12520754
-0.083473705 0.052755028 0.1737269 -0.052709144 0.045361422 0.015249483 0.0143325105 -0.02692781
-0.06945854 -0.042943936 0.067278616 0.07597969 -0.5699665 -0.16979374 0.14380722 1.0167615
-0.010087673 -0.10128801 -0.030259877 0.06423676 -0.08947544 -0.07971749 -0.38123798 -0.5895185
-0.07359419 -0.022459075 -0.1922945 -0.21448407 -0.35466963 -0.21327811 0.148032 -0.07527975
-0.032239757 0.12206421 -0.023702323 -0.020896396 -0.033808623 -0.076440185 0.1165831 -0.6598788
-0.20085192 0.8407682 -0.04082725 -0.11361047 0.07797263 -0.0551294 0.45281884 0.18157342
0.023050636 -0.0722761 -0.07102534 0.057873808 -0.047905605 -0.073414996 0.068824194 0.046744578
0.04625582 0.060087554 0.1912833 -0.013988146 -0.07890104 -0.17211786 0.13201953 -0.13870068
-0.17649515 -0.07304095 -0.1273538 -0.123458646 -0.36243317 0.14763589 0.21105419 0.17093746
-0.046552554 -0.08032611 -0.15351568 -0.024917603 -0.1068758 -0.058551185 -0.044015072 -0.20133962
-0.13607012 0.063932374 0.10575941 -0.038256135 0.028054988 0.07233962 0.056108363 0.046361167
0.057617463 -0.06275396 -0.010847561 0.07612983 -0.079590134 0.01302578 0.20364934 0.4503603
0.088410035 0.06230967 -0.01945704 -0.10256931 0.15160574 0.23125081 -0.004223305 0.10350874
0.10963156 -0.19400905 0.07036198 0.17419551 -0.005169443 -0.094339766 -0.047238454 0.035399415
-0.13287963 -0.13124678 -0.029442994 0.17300619 -0.100632854 -0.12500335 0.041587483 0.015649313
0.1042661 0.18646729 0.1630796 -0.13822146 0.08341978 0.021348903 -0.19803163 0.09173174
0.07714987 -0.26811773 -0.27423108 -0.35030907 -0.058602512 0.19726875 0.09462732 0.061708942
0.12125911 -0.008817168 0.01735869 -0.11747852 0.16035101 -0.05776438 -0.032217827 -0.2593527
-0.07682547 -0.06745096 -0.006223235 0.072227426 0.043288074 0.053046755 -0.055012804 -0.05731243
-0.037512135 0.0290109 0.0035439655 0.012464367 0.0476087 -0.016045721 -0.14160565 0.19994578

conv_2.bias f4 [12]
00000000: d9cc b73d acdf 943e 6c93 b9bc b95a 3dbd
00000010: 2cf2 0b3f 1212 0e3e 7751 933e 8048 403e
00000020: 5101 9c3e 2b54 183e 7040 0dbd 925a 1c3d
0.089746185 0.29076898 -0.022653304 -0.046229098 0.546664 0.13874081 0.2877309 0.18777657
0.30469754 0.14875858 -0.03448528 0.038172312

conv_3.weight f4 [8, 12, 3, 3]
00000000: 1c2b 92bd f57c 96bd bf42 ae3e dc05 cf3c
00000010: bdad 213d abee 3fbe 6542 813e f3e3 ee3c
00000020: 3b51 8abd ebe6 5d3d d913 fdbe a13c d8bd
00000030: 3144 52be bfb3 cdbc 1e3a a13d 4fc2 4a3e
00000040: 6430 d83d 7835 b53b 80d2 e33d 643f f0bd
00000050: 6535 313e 461a a2bd 6209 16be 6e6a c4bd
00000060: 88b2 853e f876 3dbe dc07 933e 6125 2ebd
00000070: b9c2 9bbd 4523 afbc 283f 87bd c7af 6d3d
00000080: 4c35 05bd 13dd 0a3d f20b ab3d 082f a3bd
00000090: 5561 b03d bb28 853c c18c d2bd b99a 05be
000000a0: 6a35 c23d 316e a4bc a48f a6be 8aac d43d
000000b0: d24c b3be 567a 4fbd 8574 3fbe 125e bfbc
000000c0: a9f8 acbd 9ac4 a83a 598f 02bd accd 2dbe
000000d0: b7fa 833d 0ab3 ebbc 6eb5 413e e452 52bd
000000e0: 593c babe 3f7a de3d 5555 bd3d 9f2d a03d
000000f0: de20 79bc 4ea6 47bd 9029 ad3e 3f83 843e
00000100: 0e85 32be ab24 b93e 364a afbe 9d5f 57bc
00000110: d437 143e d3ad 37be a312 933d cc01 a3bc
00000120: 7717 34bd 7806 31be 157c 093e 31d8 8cbd
00000130: ae43 043e ff58 d73d 7100 febc dcee 2cbe
00000140: a0b9 083c a12a 8d3c 09b8 85bc 8b31 b63d
00000150: 3ff6 86bd d1a7 08bd 99c9 343d b843 253e
00000160: c911 743d c3f1 973e f52c 0b3c 55c7 913c
00000170: 63b6 a5bd 8a81 81bd e8a5 77bd 3b45 9bbd
00000180: 96b3 dfbb 8f8e e2bd 2124 803d 8d18 7cbd
00000190: 870f 91bd 14b5 a8bd dbdb e8bb aebd 9a3d
000001a0: ccf2 20bd 2470 cabc f044 c73d e476 aabd
000001b0: dc9a d93d bcac 183d 4e57 22bd c5dc 733c
000001c0: 8bf0 a43c 6868 28bb dcec 63bc 1b2a d8bc
000001d0: 72a5 30bd a737 8bbc e87d 093d 2874 42bb
000001e0: 866e 0a3c 60ce 123d de42 9cbb 98dd a8bb
000001f0: 4d40 3fbc d994 7fbd c5b2 b8be c137 993d
00000200: 4874 763c bfe3 7d3d f12d b5bc 3656 29bc
00000210: a7ab 4f3c 9c80 c9bb 538e be3d 3871 6cbc
00000220: e0cd d03c adf9 a9bd 7f1c e1bc 2109 9fbc
00000230: 508c bc3c 9878 443c 300b ee3c 8ff2 afbc
00000240: d21f ed3e 442a e6bd 9409 ce3c 43a9 a1bd
00000250: 4082 d2bc 8a6e 123d f181 f23c c3ae 6dbc
00000260: 8fd9 67be 200b a6bd aa18 093d 7b27 df3a
00000270: 3378 9e3c bb28 2fbd 1286 a4bc 4c1a 89bc
00000280: 246d 4abd 419f 1b3e 899c da3e 13f5 8fbc
00000290: 1854 333d 2897 14bd f81c 85bd b117 c3bc
000002a0: e605 d73c 922f 40bd 82c2 b93d bec7 803c
000002b0: 69c8 1b3d bee5 053d 4c51 61bc 7fea 07bc
000002c0: 98e8 963d c0a4 84bc 82a3 62bc 50ff 9b3b
000002d0: 519c a63d bcc1 13bd 6e4a acbb 15c3 093d
000002e0: dbb0 55bd 1f4d 0bbd 1b0c 8c3c 7f15 d33b
000002f0: 6fd6 7abb e7bb 30bf 5d27 143e 2f48 02bd
00000300: a8ab 603e 27b2 80bc 7f20 3e3c 6ca9 dfbc
00000310: b9dc 933d cead 593e d45e cf3d 1cba 28bb
00000320: 47a2 c4bc c9e9 843d ec59 7f3d 6138 053d
00000330: b886 26bc f781 43bd 0f3c 0cbd 4e67 1f3d
00000340: edec 8a3d 0014 933b bbdd 92bd 006e 0a3c
00000350: 5429 ff3c 8729 a1bd 768e 1b3d 6cf1 adbd
00000360: 8cbe 53bd 6235 0a3c a896 ba3d 3b6d 97bc
00000370: 0330 cd3d 088d 543d 32b3 68be 52c1 84bd
00000380: d958 17bd dee4 c63c 53c5 4f3d bc24 a63d
00000390: 2a3c 993e 12d1 8bbd e3ba 3f3c bca3 f2bb
000003a0: 722b 163d 1062 77bc 4fe9 d03d 8b0b 3cbd
000003b0: cdcc eb3c 6028 d43d b998 edbd e0f2 0fbc
000003c0: ce60 18be ba78 18bd 39e0 af3e 03b9 9fbd
000003d0: c0d5 44bc 3721 ae3d 7eae 5dbd 4769 42bd
000003e0: 5c21 dd3c 4435 c93d 4ba2 863c affa 61bd
000003f0: 3640 16bd 80e4 f4bd 4a85 8bbd 276b 433b
-0.07137129 -0.073480524 0.34035298 0.025271349 0.03947233 -0.18743388 0.25245968 0.029161429
-0.06753775 0.0541753 -0.49429205 -0.10558439 -0.20533825 -0.025110124 0.07872413 0.19800685
0.10556105 0.0055300556 0.11124134 -0.11730841 0.17305525 -0.079151675 -0.14652017 -0.09590612
0.2611277 -0.18502414 0.28716934 -0.042516116 -0.076055 -0.021379123 -0.06603843 0.058028962
-0.03252153 0.03390224 0.08351888 -0.07967955 0.086123146 0.016254773 -0.10280753 -0.13047303
0.09482844 -0.020072075 -0.32531464 0.10384472 -0.35019547 -0.050653778 -0.18696792 -0.023360286
-0.08445866 0.0012875975 -0.03187499 -0.16972989 0.064443044 -0.028771896 0.18916866 -0.051348582
-0.36374167 0.1086316 0.092447914 0.078212015 -0.01520559 -0.048742585 0.33820772 0.25881383
-0.17433569 0.36160788 -0.34236306 -0.013145355 0.14474422 -0.17937402 0.07181289 -0.019898318
-0.04396769 -0.17287624 0.1342624 -0.06877173 0.12916443 0.105150215 -0.03100607 -0.16887993
0.008345038 0.017232241 -0.016323106 0.08896168 -0.065899365 -0.033363167 0.04413757 0.16139114
0.059587274 0.29676637 0.008494605 0.017795244 -0.08091428 -0.06323536 -0.060460955 -0.07581564
-0.0068268282 -0.11062347 0.06256891 -0.06154685 -0.0708304 -0.08237663 -0.007106287 0.0755571
-0.03929405 -0.024711676 0.09729946 -0.08323458 0.1062524 0.037274107 -0.03963404 0.0148841785
0.020134231 -0.0025696997 -0.013911452 -0.026387265 -0.04312653 -0.01699431 0.03356734 -0.0029671285
0.008449202 0.035841346 -0.0047687134 -0.005153369 -0.011673045 -0.06239781 -0.3607389 0.07481337
0.015042372 0.061984774 -0.022116633 -0.010335496 0.012675202 -0.0061493646 0.0930449 -0.01443129
0.025488794 -0.08299575 -0.027479408 -0.019413533 0.023016125 0.011991642 0.029058069 -0.021477966
0.4631334 -0.1123853 0.025151052 -0.07893612 -0.025696874 0.03574995 0.029602977 -0.0145069985
-0.22641586 -0.08107591 0.033470787 0.0017025316 0.019344425 -0.042763453 -0.020083461 -0.016736172
-0.04942049 0.1519747 0.42697552 -0.017572915 0.04378137 -0.036276966 -0.06499666 -0.023815008
0.02624793 -0.046920367 0.090703025 0.015720244 0.038032923 0.032689802 -0.013752293 -0.008295654
0.073685825 -0.01619184 -0.013832929 0.00476066 0.08135284 -0.03607343 -0.005257896 0.03363331
-0.052170616 -0.034009095 0.017095616 0.0064417715 -0.0038274785 -0.69036716 0.14468141 -0.03180712
0.21940482 -0.01570995 0.011604427 -0.027302466 0.07219834 0.21257707 0.10125509 -0.0025745695
-0.024003161 0.064899035 0.062341616 0.03252447 -0.010163955 -0.047731366 -0.034236964 0.03891688
0.06783471 0.004488468 -0.07171198 0.008449078 0.031147636 -0.07869249 0.03797766 -0.08493313
-0.05169539 0.008435579 0.09110767 -0.018484702 0.10018923 0.05189231 -0.22724608 -0.064821854
-0.036949966 0.024279054 0.050725292 0.08112475 0.29928714 -0.06826986 0.011702272 -0.0074047726
0.036662526 -0.0150990635 0.1020075 -0.045909446 0.02878418 0.103592634 -0.11601395 -0.008785933
-0.14880678 -0.03722451 0.34350756 -0.0779896 -0.012013853 0.08502429 -0.054121487 -0.04746368
0.026993446 0.09824613 0.01643481 -0.05517071 -0.03668233 -0.119576454 -0.06812532 0.0029818506

conv_3.bias f4 [8]
00000000: 5f4e cc3e 2d14 fb3d 11d9 b83e 6def 433e
00000010: 25c4 8f3e 43f5 883e 821c b4bc a49f e13e
0.39903542 0.122597076 0.3610311 0.19134302 0.28079334 0.2674962 -0.02198625 0.4406711

deconv_1.weight f4 [8, 12, 3, 3]
00000000: f6ad 05be 9af8 52be 5c3c 123f 92f3 a4be
00000010: 63bf 2f3e f69e b3bd 7309 e13e 4a52 4bbd
00000020: 7912 b23d 00b7 3cbe 29ba a33c b793 76be
00000030: 4fdd bfbe cbe7 e3bd df2e 383e 145e a03e
00000040: 5d95 1f3d 5134 59be 1dc7 de3e 77db fabd
00000050: 3067 5fbd 1039 04bf 18fe 503e 7c3b 95bd
00000060: be7b cabd ebf8 7ebd 0606 943e a753 783e
00000070: f9ba e13c f46c 8a3e 862f 023e 5f84 043d
00000080: 8a0c 44bc db46 463e 179c 2dbb 6597 09bf
00000090: 986f 15bd ab05 37bd 6802 39be 33d9 adbd
000000a0: e825 40be d966 2abe 1a72 b2be c0a4 1bbe
000000b0: 3b6b 273e 9ffd 0dbe f206 0dbe d084 bfbe
000000c0: 9780 f2bd 1033 b2bc 4ede da3c adb1 a2be
000000d0: f67d 893c d345 46be 324f d7bb 88fd 563d
000000e0: 033e 3fbd 8ae4 9e3e b59e c9be c2bd f43c
000000f0: 779d 213e fb6c 9dbd bc33 e43e a376 9c3e
00000100: 859b 40be e5d0 923e 000c 75be 0cc2 c53d
00000110: edef 563d 0b51 37be 1890 133d ed19 e93d
00000120: 8783 56bd e5d8 dabe 43ef 173f 9621 1ebd
00000130: 662a 27bd 0fbf c03d 587f 5ebc 4a47 02bd
00000140: 109b ab3c 4321 2b3e 3da2 f83d 0de3 fabb
00000150: a032 cb3d 20bb cdbd bfde f53c a6b9 ee3a
00000160: b4e5 13be d346 413e 4caf 25be 0deb dfbc
00000170: dfb8 163d a8ee e53d 1913 95bc 30ee 2f3e
00000180: 2626 1abe 66d6 373e 6dc0 b93e 0079 bdbe
00000190: 4406 57bd 5045 883e 3096 4fbd 2bb6 253d
000001a0: f7ef f43c a476 963e 6156 5d3d 6b5c 183f
000001b0: 32ed 74bf 0b32 0f3e cbcb c9bd 8415 ef3d
000001c0: a124 09bc 5493 1e3d d1f7 8bbd 6bd8 953d
000001d0: 6e0d 90bc 40c8 14be 33a3 cd3c 1f0e 103e
000001e0: 023d a13d 34d3 0d3d 22e8 7abd e0d2 b4bd
000001f0: f7ba 4b3c 22e1 7f3e 5d59 83be 4da4 163e
00000200: 4f92 53bc e546 3c3f 4b78 f3be 05de 3fbc
00000210: 9a73 b3bd b6c7 c13b 8010 083d 1713 a3bf
00000220: c5f0 a639 c724 1abe c5b9 583d 8163 6d3d
00000230: 9971 60bd 784e afbd 3ad9 2dbd 1a15 033e
00000240: c812 b5be f6ac 073e 3de0 93bd 2e0d b83c
00000250: 0913 043e ac35 0e3d 52b4 98bc afe2 3f3d
00000260: a43a 24be 0a60 c2bb 2f35 823b ee92 35bd
00000270: dd37 d73d ab1b af3d 8fcd 833d 56cb ae3c
00000280: 67e1 e13d eb06 94bd f91b 96be 0395 643d
00000290: 09b0 62bd 64cc 5cbd e0a4 b83e c996 ee3b
000002a0: ae8e d3ba 8fc5 38bc 8a8c 00be c406 b5be
000002b0: bdf9 0a3e 1ae9 edbc 9722 283e 1f54 acbc
000002c0: bdef 843b f21b bdbd 7055 e83d af8a 3fbd
000002d0: c6cb 633d c7aa 35bc 757d 13bd 16fc bf3d
000002e0: 6260 18be 0729 173d 4ae6 00bc f973 92bd
000002f0: 67fe 01bd c7c5 7cbf 2370 c3bd f1ac d0bd
00000300: d976 3f3b 754e 123d 2cde e7bd d12a 8a3c
00000310: cfd9 88bd 1624 8abe 35a4 bb3f d0b1 8dbc
00000320: 27ed 93bd 31ff b0bd 3414 a23c 6507 bf3b
00000330: 4c3e 52bc 5f81 d1bc f7fe 18be 24b0 353e
00000340: 2570 2bbd 13fc bdbd dd9e bdbd b3da 05bd
00000350: eb2d 5d3d 9a4a c9bc ffb4 903c 0b31 30be
00000360: cc60 203c 9671 efbc a7e2 c33d 5f2f ea3d
00000370: 83a4 d3bd ed5a c9bd d008 39bf 0bfb 083e
00000380: d9a1 883d 412d af3d 1abc 193d 687f 3cbe
00000390: 8cdf 91bd 78b1 dabd 332b 7a3d befe eb3e
000003a0: 5cd9 9b3d 5683 42be c033 e33e 8ffe 18bd
000003b0: f04b 76bc 91e9 a3be 5f83 80be 3e98 713d
000003c0: 14ea c03d 03e0 6b3c c3ae a43e 3cb4 4e3e
000003d0: 2e90 f03c 292e 623d 907a 7b3c 6f9f 5b3a
000003e0: a2c7 cc3c 3cf3 d2be 08c4 183c fc25 a2be
000003f0: 9190 88bd 95aa 9bbd 4776 87bd dfa4 94bd
-0.13054642 -0.20602646 0.5712335 -0.3221708 0.17162852 -0.08770554 0.43952522 -0.049639024
0.0869493 -0.18429184 0.019986229 -0.24079786 -0.37473533 -0.111281954 0.1798663 0.31321776
0.038960803 -0.21211363 0.43511286 -0.12248891 -0.054541767 -0.5164957 0.20409429 -0.07286736
-0.09886883 -0.062249105 0.28910846 0.24250661 0.027554976 0.2703625 0.12713441 0.0323528
-0.01196588 0.19362967 -0.0026490742 -0.53746635 -0.036483377 -0.04468314 -0.18067324 -0.08488693
-0.1876446 -0.16640796 -0.34852678 -0.15199566 0.16349499 -0.1386628 -0.1377218 -0.37406015
-0.11840933 -0.021752864 0.026717331 -0.3177618 0.016783696 -0.19362573 -0.00657072 0.05248788
-0.04669 0.31033736 -0.39378896 0.02987564 0.15782724 -0.07686802 0.4457072 0.30559263
-0.18809326 0.28675 -0.23930359 0.09656152 0.052474905 -0.17902009 0.03602609 0.11381898
-0.052371528 -0.42743602 0.5934946 -0.03860625 -0.04081192 0.094114415 -0.013580166 -0.031806268
0.020947963 0.16711907 0.121403195 -0.007656461 0.09921765 -0.10045457 0.03001344 0.0018213287
-0.14443094 0.18874674 -0.16180152 -0.02733376 0.0367974 0.11227161 -0.018197583 0.17180705
-0.15053615 0.1795288 0.36279622 -0.37006378 -0.05249621 0.2661538 -0.05068034 0.040456932
0.02989958 0.2938739 0.054037455 0.5951602 -0.9567443 0.13983934 -0.098533235 0.11674026
-0.008370549 0.03871472 -0.068343766 0.07316669 -0.017584529 -0.14529514 0.025102234 0.14067887
0.078729644 0.034625247 -0.061256535 -0.08829284 0.012434713 0.24988225 -0.25654116 0.14711113
-0.012913301 0.73545676 -0.47552714 -0.011710648 -0.087622836 0.0059137 0.03321886 -1.2740201
0.00031841375 -0.15053092 0.05291154 0.057956222 -0.054795835 -0.085598886 -0.04244349 0.12801018
-0.3536589 0.13249573 -0.072205044 0.022467222 0.12897886 0.034719154 -0.01864067 0.04684704
-0.16037995 -0.005931859 0.003973625 -0.044329576 0.10508702 0.08550199 0.064356916 0.021337193
0.1102932 -0.07227882 -0.29318216 0.05580617 -0.05534366 -0.05390586 0.3606329 0.0072811586
-0.0016140544 -0.01127757 -0.12553611 -0.35356724 0.1357183 -0.029041816 0.16419445 -0.021036206
0.0040568993 -0.09233846 0.11344421 -0.04676312 0.055614255 -0.01108808 -0.036008317 0.093742535
-0.14880517 0.03690436 -0.007867405 -0.07151026 -0.031736758 -0.98739284 -0.09542873 -0.10189236
0.0029215126 0.035719354 -0.11321673 0.01686612 -0.06682169 -0.26980656 1.4659487 -0.017296702
-0.072229676 -0.08642424 0.019785024 0.005829739 -0.012832236 -0.025574384 -0.14941011 0.17742974
-0.041854996 -0.09276595 -0.092588164 -0.03267927 0.05399887 -0.024571706 0.01766443 -0.17206208
0.009788703 -0.029228967 0.09564715 0.114348166 -0.103341125 -0.09831796 -0.7227907 0.13377015
0.06671495 0.085535534 0.037532903 -0.18407977 -0.07122716 -0.10678381 0.061076354 0.4609279
0.076098174 -0.18995413 0.4437542 -0.03735214 -0.015032753 -0.32014135 -0.25100228 0.05898308
0.09419647 0.01439667 0.32164583 0.20185941 0.029365625 0.055219803 0.015349045 0.00083779445
0.024997536 -0.41201198 0.009324081 -0.31669605 -0.06668199 -0.07600895 -0.066143565 -0.07258009

deconv_1.bias f4 [12]
00000000: 0cac d63e a8e5 683e d508 6fbf 9632 1e3f
00000010: 1fc9 b33e 3645 d83e fa1b a63e c927 eb3e
00000020: 7f1d d63d d666 b03e 9985 013f a134 173f
0.41928136 0.22743857 -0.9337285 0.6179594 0.3511438 0.42240304 0.3244322 0.4592879
0.10454845 0.34453458 0.5059448 0.5906468

deconv_2.weight f4 [12, 16, 3, 3]
00000000: a744 613d 9331 a23d 3e03 103d 5687 133d
00000010: 5c9f a13d 68eb d63c bbfa 553d 15c0 283d
00000020: bf7e 153d 9dbd 2ec0 289a 19c0 215b d63d
00000030: 4ce8 49c0 eb36 4ebe b005 23be 0d30 04be
00000040: fa91 53bd 0360 7cbd f91c bcbd 38b6 383d
00000050: 7b52 68bd a7e4 2cbc 201a cb3d edaa 18bc
00000060: 8f48 c8be e8ad 8cbe cb75 00bc fcf4 63bf
00000070: a626 40c0 7189 adbf a9e5 9bc0 c8d8 e8be
00000080: f982 f53c 9ff4 013e 6d6d 3cbe ac09 cb3d
00000090: f566 e4bc 1195 63bc d068 923e 1150 2f3e
000000a0: 7510 373d 86d0 e93d 2f45 323e 6ba4 3a3e
000000b0: 2241 fc3d 0d0a f0be 197a f1be 6f47 ff3a
000000c0: a7d4 17be d14c 3dbe 47a9 553d 7152 3e3e
000000d0: 71bb 4cbd 9e46 e7bc a5b6 2f3d 96cd 03bf
000000e0: 48e0 9f3e eba7 9c3e 2372 883e 1fba 393e
000000f0: f038 55be 57e0 47be 6f88 2bbd 23ae 8bbe
00000100: 613d 27c0 a690 88bd c4e4 66be ee72 18bf
00000110: 8061 41bd 1532 fbbd 02d9 10be ca32 fcbc
00000120: ddd1 fcbe ea7b 533e 0520 1e3e 1e23 5a3e
00000130: 082c b13d 8581 943d 8135 f43e 8811 c33e
00000140: b5c8 833d 048a a2be 5a1c 6f3e b9e1 f33d
00000150: a6ee 813d c2cf a73e 5a05 7ebe 3a88 603e
00000160: 8f2e 8a3e 80c1 6cbd dd6c ebbd fcb9 80be
00000170: 21a0 d33d a0ea bcbd 7dfc b4be 800c 0e3e
00000180: 7c47 47bd b38c fabd 831d 13bd 2b0c 1639
00000190: 63c2 953c af15 2bba 9551 1dbc 16cd 8a3c
000001a0: eb58 83bc 8762 be3c 1728 f23a d73c 57b9
000001b0: f04e 8ac0 a6bb 99be 1b78 15c1 fdcd 2cbe
000001c0: 113d d43d 6d7a 98c0 6d30 70c0 1972 6bc0
000001d0: 3e92 94bf 6370 ac3d d75d 0dbe fbe3 adbc
000001e0: 85e0 01bd 8e49 b53c 5af4 8cbd 23f7 5bbd
000001f0: 2c9c c1bc 0a7f 1bbd 5dfc 373e 4639 11bc
00000200: dba4 babb fda9 763c 6642 a3be 9319 7abe
00000210: 6e03 403d fc6a 38be 0c77 91bd 65e8 4a3d
00000220: a5a9 79bd 12f8 a63c 30e7 b1bd a4f3 e4bc
00000230: 8934 d03d 445c da3d a09e c93d 41cb 86bc
00000240: 9ea1 113d fdf3 0c3e b1db ef3c 88cd 2a3c
00000250: 46e2 e33d 6df6 723d 4a47 08be b67e 2fbd
00000260: c9b4 da3d 8623 823d 4c6d 4cbe 293c da3d
00000270: 5e4e b6bd f94c a1be 20d4 0bbe 2504 213d
00000280: 17f8 9abd 2ffe 96bd 3741 8dbd 6896 fabd
00000290: 3f14 d83d ed21 28bf 8fc8 c0be 6a63 72be
000002a0: 8df1 04bf 9bfe 38bf 7142 1abe bd96 fcbd
000002b0: f098 093e 133b 97b9 536d 573d a2a9 9b3d
000002c0: 8902 1bbb 20f8 313e a760 153e 2ab0 ddbc
000002d0: a73d 20bd 0788 a7bd 3a83 4ebc 4a75 58be
000002e0: 77e8 e9bd 40ab 63bd 9df8 d4bb a165 193d
000002f0: 2ebf 593d 7eba bc3d dee8 913d f933 00bd
00000300: b96e afbd 2d4c ccbd 9f47 2c3d 4bd7 34bd
00000310: 137b eebd 0bc0 bcbc c1af 9ebd c56f 773c
00000320: e4cd b53d 0b0d d3bc e959 b9bc 2168 b83d
00000330: 8c50 eabd e0ab 81bd b7bc eb3c 80f0 3abe
00000340: 8948 7bbb 8666 90be cc03 f0bd 036b 90bd
00000350: 5939 45bf 2633 54be ef5d 28bf 2fa4 12bf
00000360: d3ad 823c 853d 4f3d ae02 deba c9c2 9b3c
00000370: 96a1 083e 4323 a13d 5ec0 713b c26d 35be
00000380: bcbf fcbd e141 b73d a84c 1dbb 7738 de3b
00000390: d7d3 6abe a03e cdbd dbbe 66bb 3018 0a3e
000003a0: 12d4 693e 9a8a 0f3e eb4e eabd c277 a9bd
000003b0: 8487 cd3d ab8a aabe c39b 79bf 7052 3ebe
000003c0: 7db3 50bf 9f4d 3cbf c072 15bf f60f 013d
000003d0: 67ca f53d edf8 183d 6393 633b 81c6 4e3d
000003e0: 5f68 0c3d 11d7 9bbd a694 22bd 2afa 9c3d
000003f0: bb25 81bb 2348 183d cc87 f0bb a58f acbe
0.054997113 0.07919612 0.035159342 0.03601774 0.078917235 0.026235297 0.05224107 0.04119881
0.036497828 -2.730323 -2.400034 0.104666 -3.1548033 -0.20138137 -0.15920138 -0.12908955
-0.051652886 -0.061615 -0.091852136 0.045095652 -0.056719285 -0.010552562 0.09917092 -0.009318096
-0.39117858 -0.2747643 -0.007840584 -0.8904569 -3.002359 -1.3557569 -4.8717847 -0.4547789
0.02996968 0.12690972 -0.18401118 0.09913954 -0.027881125 -0.013890521 0.2859559 0.17120387
0.04469343 0.11416726 0.17409204 0.18226783 0.123171106 -0.46882668 -0.47163466 0.0019476245
-0.14827214 -0.18486334 0.05216339 0.18586136 -0.049983446 -0.028231915 0.042898793 -0.51485574
0.312258 0.3059686 0.2664958 0.18137406 -0.20822501 -0.19519173 -0.04187816 -0.27281293
-2.6131213 -0.066682145 -0.22548205 -0.5955037 -0.047212124 -0.12265412 -0.14145282 -0.030785937
-0.49378863 0.20652738 0.15441902 0.21302459 0.086509764 0.072512664 0.4769707 0.38099313
0.06434766 -0.31745923 0.23350659 0.119082876 0.06344347 0.32775694 -0.24806729 0.21926966
0.26988646 -0.057801723 -0.114953734 -0.25141895 0.103332765 -0.09224439 -0.35348883 0.13871956
-0.048652157 -0.122338675 -0.035916816 0.00014309648 0.018281167 -0.00065263634 -0.00960197 0.016943496
-0.01603361 0.02324034 0.0018475082 -0.00020526662 -4.322136 -0.30025977 -9.341823 -0.16875453
0.1036321 -4.7649446 -3.7529557 -3.678839 -1.160713 0.084198736 -0.13805328 -0.021226874
-0.03170826 0.0221298 -0.06882544 -0.053702485 -0.023634039 -0.03796295 0.17967363 -0.008863753
-0.005695922 0.015055177 -0.31886595 -0.24423818 0.04687827 -0.18009561 -0.071027845 0.049538035
-0.0609528 0.020381961 -0.08686674 -0.027948208 0.1016627 0.106621295 0.098447084 -0.01645434
0.03555452 0.13764949 0.029279562 0.010424979 0.111271426 0.05931704 -0.13308445 -0.04284545
0.10679013 0.06354432 -0.19963568 0.10656006 -0.08901666 -0.31504038 -0.13655138 0.039310593
-0.07566851 -0.073727004 -0.06897204 -0.12235719 0.10550737 -0.65676767 -0.37653014 -0.23670736
-0.5193108 -0.722635 -0.15064408 -0.123334385 0.13437247 -0.00028844978 0.052594494 0.07600714
-0.0023652634 0.17379808 0.14587651 -0.02706154 -0.039121296 -0.08180242 -0.012604529 -0.21138492
-0.11421292 -0.05558324 -0.0064993636 0.037450437 0.05316084 0.09215258 0.07124494 -0.031299565
-0.085660405 -0.09975467 0.04206049 -0.044150632 -0.11644568 -0.023040792 -0.07748366 0.0151023315
0.08877161 -0.025763055 -0.02262588 0.09004236 -0.11441144 -0.06331611 0.02877651 -0.18255806
-0.0038342795 -0.2820322 -0.11719474 -0.07051661 -0.7704063 -0.20722637 -0.6576833 -0.57281774
0.015952026 0.05059578 -0.0016938054 0.01901378 0.1334289 0.07868054 0.0036888341 -0.1771765
-0.12341258 0.08948112 -0.002400199 0.0067816335 -0.22932373 -0.100217104 -0.0035208974 0.1348579
0.22834805 0.14017716 -0.11440834 -0.08274795 0.10035613 -0.3330892 -0.975033 -0.18586135
-0.8152388 -0.7355594 -0.5837822 0.031509362 0.12001496 0.03734677 0.00347253 0.050482277
0.034279224 -0.0760938 -0.039692543 0.076649025 -0.0039412654 0.03717817 -0.007340407 -0.33703342

deconv_2.bias f4 [16]
00000000: 8bfd e9b7 1b0b f63c ee9f f43e e6dd 86bb
00000010: 4cb3 9a39 7c87 c03e 8000 723e 9732 253e
00000020: d8b7 e43d d352 b53e e100 b13e 632b 0b3d
00000030: 218b a93e d775 a03e 9461 dd3e b1fd 483e
-2.789383e-05 0.030034592 0.47778267 -0.004115808 0.00029506756 0.37603366 0.23633003 0.1613258
0.11167878 0.35414752 0.34570983 0.033976924 0.3311396 0.31339905 0.4323851 0.19628026

deconv_3.weight f4 [16, 3, 3, 3]
00000000: a12d 043e 10a2 cf3d addd c7bc 2c0d 353b
00000010: 0e0c 45be 4eb1 5abe 86e9 dfbd e15c adbe
00000020: f6c4 82be bba1 613e c89c c43e 5be3 353e
00000030: 373f 8c3e 074f f43e bc73 673e f2f4 923d
00000040: 50f6 c33d 91f6 cc3c a56f 8b3e 931e fe3e
00000050: 49a4 783e 73c2 c63e 32d6 3c3f 2f7c c43e
00000060: d495 0f3e b1e1 823e 6dff f93d 83be 9cbe
00000070: 4e4e c5be 5442 81be c417 cc3d dc07 e93b
00000080: 85e7 c6bd ae05 ca3d cbb5 aa3d 5c64 0d3c
00000090: 31f9 75be d923 a1be 7a61 58be 103c cd3d
000000a0: f780 d03c f30a a3bd 1136 b13d e340 9b3d
000000b0: d119 2f3c 7467 81be fa17 a8be 76d6 6abe
000000c0: 22c8 aa3d 9738 cf3b 7ebc c8bd 09b5 ad3d
000000d0: 4415 8f3d 5c2f 3038 da8e 283e d04e 9c3e
000000e0: 1b2c 803d 26b8 ab3e 7185 f53e 0e98 493e
000000f0: 55fe 2b3e 74ef 6d3e 19c9 3d3b 68e9 133e
00000100: dd23 863e 1c0e 3b3d c010 8c3e f29d cc3e
00000110: ef31 2b3e 6929 f83d 652a 403e 9d42 fd3b
00000120: c71c 1c3e 80cf 843e c0aa 193d 9b54 8a3e
00000130: 7671 c33e f65f 123e 7e41 e03d 4d5f 283e
00000140: 578a 9bbc b243 8ebe 1a16 b4bd 7239 9abd
00000150: aa64 57be 9858 f5bc c482 11bd 29bd 18be
00000160: 50cc 233d c403 433c d2b6 61be 91dd 6ebd
00000170: 8377 40bd c5b4 20be 318e 78bb 491a 2dbc
00000180: 3a70 e9bd 0656 193d 100c 7f3c 8a16 76be
00000190: 8bca a1bd 05dc 7fbd 7446 3fbe 0a5e 19bd
000001a0: bcf7 01bd c978 06be d489 ae3c 76c8 1f3c
000001b0: 70e1 ce3e 5659 0b3f f151 283e 9b24 fc3e
000001c0: 94d0 2d3f 7f3c 353e b171 423e 41b0 b03e
000001d0: 845a 233e 9491 b93e 0520 f53e ca2e 193e
000001e0: 16b4 e23e 8db6 1a3f 840c 273e 54a0 353e
000001f0: 20cd a13e d874 1b3e 921e b63e d298 f93e
00000200: 6349 243e e8a9 e43e 3d73 253f c685 4f3e
00000210: d591 3a3e 6dc6 af3e 00b2 323e 85c0 773d
00000220: 0595 a73e 0713 5a3e 77ca 72bc 6a43 8c3e
00000230: 7a15 7e3e 6a56 ecbd 004a 8cbd 4ee1 08bd
00000240: 9391 483d b88a 863e 8c22 273e 62c6 36bc
00000250: 0274 6a3e 9220 533e 0ad8 bdbd adf6 60bd
00000260: f1e1 bfbc 9e9d 4c3d f9b7 8a3e cffc 303e
00000270: 7aa0 0bbc 5343 743e 2080 5a3e 5af1 bdbd
00000280: d6c8 4cbd 1330 adbc cb5f 82bd d008 c1be
00000290: a7f7 8cbe a37b 58bd 1080 c9be bae8 98be
000002a0: 9ca1 67bc e0ed 74be 5663 79be 3848 1ebd
000002b0: f625 9cbe 0f03 6cbe edd0 1dbd 17fc a8be
000002c0: e79c 83be e0a9 9ebc a6fa 57be 41dd 5abe
000002d0: 8aa0 81bd e9a0 aabe 295f 7dbe 8907 74bd
000002e0: c67e b6be 9ab8 8cbe 69ec d6bc ce31 65be
000002f0: 94e9 65be e981 0cbd 96c5 073e 2c68 933e
00000300: 412a 2c3e 20e6 7e3e 4876 013e 3b30 493e
00000310: 908a 883d e416 043d bc9e d6bc 0587 033e
00000320: 1ec5 8a3e 6d6a 243e 09a0 733e 8219 053e
00000330: 2a97 443e 8dbd 983d 5b1e 273d cb82 9fbc
00000340: 4f7b 043e 3ad2 883e 5ecb 273e 8d1e 7c3e
00000350: a715 0f3e 02bd 463e 6c1e b73d 0514 763d
00000360: 34ad 473d e8d0 1dbc c533 563d f46b 44be
00000370: 85fe 00be 7840 9cba f967 06be 257c 34be
00000380: f329 e53d ed1f 433d 03a4 7d3b dabb 473d
00000390: 7fcb 1cbe 2a32 a4bd 034c 9a3c 6744 cebd
000003a0: d947 fdbd 2de7 e83d 5238 c83c 311e 43bc
000003b0: 6d3b 133d 678c 32be 4bca d2bd f98f 87bb
000003c0: bc5d e7bd cf51 14be d6da b63d 2924 a5bc
000003d0: f24b e4bd 35b2 dfbd 9efb 2dbe 24d7 8dbe
000003e0: 46b2 6fbe 2336 40be 638c 89be c88b a2be
000003f0: 5ab4 e7bb 7691 93bd 7389 9dbd def5 e5bd
0.12908031 0.10138333 -0.024397695 0.002762626 -0.1924288 -0.21356699 -0.10933213 -0.33859923
-0.25540894 0.22034352 0.38400865 0.1776251 0.2739198 0.47716543 0.22602743 0.07175626
0.09568465 0.025019916 0.27233616 0.496327 0.2428142 0.38820228 0.73764336 0.38375995
0.14021999 0.25562814 0.12206922 -0.306141 -0.38536304 -0.25245917 0.099654704 0.0071115326
-0.097121276 0.098643646 0.083354555 0.008629885 -0.2402084 -0.31472662 -0.21130934 0.10021222
0.02545212 -0.07961073 0.086528905 0.075807355 0.010687307 -0.2527424 -0.32830793 -0.22933373
0.083389536 0.0063238847 -0.09801577 0.08481795 0.06986478 4.2005777e-05 0.16460744 0.3052888
0.062584125 0.33538932 0.4795337 0.1968691 0.16796239 0.23235875 0.0028958975 0.14444506
0.26199237 0.045667753 0.2735653 0.39964253 0.16718267 0.12117273 0.18766172 0.007728888
0.15245353 0.2593956 0.037516356 0.27017674 0.381725 0.14294419 0.10949992 0.16442604
-0.018986864 -0.27786022 -0.08793278 -0.07530488 -0.21034494 -0.029949471 -0.0355251 -0.14915909
0.03998977 0.011902753 -0.22042397 -0.05831677 -0.046988975 -0.15693958 -0.003792655 -0.010565349
-0.11398359 0.037435554 0.015566841 -0.24032035 -0.0789996 -0.062465686 -0.1867922 -0.0374432
-0.0317304 -0.13132013 0.021305956 0.009752383 0.4040637 0.5443319 0.16437508 0.49246678
0.6789639 0.17698859 0.18988682 0.3450947 0.15952498 0.3624388 0.4787599 0.14959255
0.4427802 0.604348 0.16313368 0.17736942 0.3160181 0.15181291 0.35570198 0.48749405
0.1604362 0.44660878 0.64628965 0.20265874 0.18219693 0.34331074 0.17450714 0.060486335
0.3273088 0.21296321 -0.014818779 0.27395183 0.2481288 -0.1153992 -0.06850052 -0.033417992
0.048966955 0.2627771 0.16321772 -0.011155697 0.22895816 0.20617893 -0.09269722 -0.05492275
-0.023423167 0.049955003 0.27093485 0.17283939 -0.008522147 0.23853807 0.21337938 -0.0927455
-0.04999622 -0.021141088 -0.06365927 -0.37702036 -0.27532694 -0.052852284 -0.39355516 -0.29865056
-0.014137652 -0.23918867 -0.243543 -0.038643092 -0.30497712 -0.23048042 -0.038529325 -0.3300483
-0.25705644 -0.019368112 -0.21091709 -0.21373464 -0.063294485 -0.3332589 -0.24743332 -0.0595775
-0.35643595 -0.2748459 -0.026235776 -0.2238228 -0.22452384 -0.03430358 0.13258967 0.28790414
0.16812994 0.24892473 0.12642777 0.19647305 0.06667054 0.032248393 -0.026198737 0.12844475
0.27103513 0.16056223 0.23791517 0.12998012 0.1919829 0.07458029 0.040800434 -0.019471547
0.12937663 0.2672289 0.16386172 0.24621029 0.13973103 0.19408038 0.089413494 0.060077686
0.048749164 -0.009632327 0.052295465 -0.19181806 -0.12597091 -0.0011921069 -0.131256 -0.17625482
0.11189642 0.04763787 0.0038702495 0.048763134 -0.15312003 -0.080173805 0.018835073 -0.100716405
-0.123672195 0.11372218 0.024440918 -0.011909054 0.035945345 -0.17436372 -0.102924906 -0.004137036
-0.11297175 -0.14484333 0.089284584 -0.020158844 -0.11147298 -0.10922662 -0.16990516 -0.27703202
-0.2340785 -0.18770652 -0.2686492 -0.3174727 -0.00707106 -0.07205479 -0.07692232 -0.11228536

deconv_3.bias f4 [3]
00000000: a188 f23d ef3a ad3d 09e9 de3d
0.11842466 0.08458506 0.10884292
